models/weights/gnn_contrastive_beta.pth (torch, 56716 bytes, 9 tensors)

conv1.lin_l.weight f4 [64, 5]
000000 a8 8c a1 3e aa 66 d7 3d b4 9b d3 be f3 9c b7 3e
       0.31552625 0.105176285 -0.4132973 0.3586193
000010 e2 a1 51 be f2 fe c6 be cf ef c1 bd c6 a0 95 be
       -0.2047191 -0.38866383 -0.09469568 -0.29224223
000020 9b 71 c2 be 32 45 12 be 8b 5f 33 be 58 2e c1 3d
       -0.379773 -0.14284208 -0.17516916 0.094326675
000030 79 ba 72 3e 68 4f 9d 3e 38 3a ae 3e 5f 5e bc bc
       0.23703946 0.30724645 0.34028792 -0.022994218
000040 51 de c5 3c f6 18 9c be 22 92 99 3e 50 ad a2 bc
       0.02415386 -0.30487794 0.29994303 -0.019858032
000050 10 34 ce 3e e7 bd b9 3d 4b 3d 00 3e ad ca 10 bd
       0.40274096 0.09069424 0.12523381 -0.035349537
000060 f6 32 e9 3e 0f fe ac 3e ec 6b a3 3e 5a f0 71 be
       0.45546693 0.3378758 0.31918275 -0.23626843
000070 6d e5 ef bc 53 8a 6e 3e 69 62 c6 be 91 d7 e6 3d
       -0.029284203 0.23294954 -0.38746956 0.11271585
000080 8d c1 61 3e 67 50 a2 be ea 0f f0 bd 4b ba cd 3e
       0.2204649 -0.31701967 -0.11721785 0.40181193
000090 e8 c3 54 be 22 eb 8d 3e e4 f2 a0 3e 7f 07 db bd
       -0.20777857 0.27718455 0.3143531 -0.10694789
0000a0 d7 da 6a be 5e 1f 35 bb 37 2a 51 3e 54 d9 cc 3e
       -0.22935043 -0.0027637105 0.2042626 0.40009558
0000b0 0a 62 db 3d cc 97 5a bd cf 2e 84 bc 5b c1 01 3e
       0.10712059 -0.05336742 -0.016135601 0.12671416
0000c0 e5 ef 4e be b3 5d ce bd cc db 92 be b8 0d bd 3c
       -0.202087 -0.100764655 -0.28683317 0.02307783
0000d0 5d 8c a8 be ad 9a e7 3e 1e c8 85 3b fc c6 38 3e
       -0.3291959 0.45235196 0.0040826937 0.18044657
0000e0 c5 20 b3 be 0a 81 d5 be 9c be d2 3e 2b 2c bb be
       -0.3498594 -0.41700011 0.41161048 -0.36557135
0000f0 00 0a 9b be 75 63 d4 bc a5 ef ce 3e 72 80 a1 be
       -0.30281067 -0.025926331 0.4041721 -0.31543308
000100 44 a9 97 be 41 e9 94 3e 8f 84 e3 be ca 1f 5b bb
       -0.29621327 0.2908421 -0.44437072 -0.0033435696
000110 ce cd b2 3e 45 82 c9 be 77 fa da bb c3 44 d0 be
       0.34922642 -0.393572 -0.00668269 -0.4067746
000120 eb 91 a0 3d 0d 02 43 be 14 05 a3 3e 0c df 9c 3e
       0.07840332 -0.19043751 0.31839812 0.3063892
000130 a4 73 99 3e 96 f9 ca be c1 cd 8a 3e ed 00 d0 be
       0.2997104 -0.39643544 0.27110103 -0.40625706
000140 82 62 be be 00 bd 6d bd b1 05 6c 3e 0a f7 57 3e
       -0.3718453 -0.058041573 0.23049046 0.21090332
000150 e0 1d fa bd c9 69 15 bd 42 10 a7 be 24 ca 47 be
       -0.122127295 -0.036477838 -0.3262959 -0.19510704
000160 15 dd 1c 3e d3 d4 d5 be cb af b5 be 57 88 d7 3e
       0.15318711 -0.41763934 -0.35485682 0.42096207
000170 b3 ad ce be ca 2b ab be da 66 e1 bd 76 0a 33 3e
       -0.40366897 -0.33431846 -0.110059455 0.1748446
000180 01 d3 a9 3e 0d 2a 88 be a1 d1 90 be dd 7a 9b be
       0.33168796 -0.26594582 -0.28284934 -0.30367175
000190 af 49 0d be 18 61 bf 3e 16 d1 ed 3c b4 a2 8d be
       -0.1379764 0.37378764 0.029030364 -0.27663195
0001a0 25 2d dc be 66 84 b4 3d 92 f1 c2 3c c4 95 a3 3e
       -0.43003193 0.088143155 0.02379683 0.319502
0001b0 55 82 6c be f7 0a 0f bd 04 7f 2d be 00 54 15 bd
       -0.23096593 -0.034922566 -0.16942984 -0.03645706
0001c0 43 a9 21 3e 21 cb 1f 3e 7d 4e 3f 3e b9 52 fa 3d
       0.15787224 0.15604831 0.18682285 0.12222809
0001d0 99 33 dc be fc 56 fd 3d a9 d8 a6 be c3 02 66 3e
       -0.43008116 0.123701066 -0.32587174 0.22461991
0001e0 30 fb c7 be b4 e3 d0 3e 9b 59 dd 3e 26 08 bd 3d
       -0.39058828 0.40798724 0.43232426 0.0923007
0001f0 95 43 a1 be c3 73 49 bd eb 46 c1 bd 9c f2 81 3e
       -0.31496873 -0.049182665 -0.09437355 0.2538041
000200 c6 ed 9f 3d 8e 3d c9 3d de 27 99 be 3d 6b b2 3d
       0.078090236 0.09826194 -0.2991323 0.0871186
000210 6c cb 88 3e 14 7e 42 be b5 25 e3 be cc 7d c5 3e
       0.267177 -0.18993407 -0.44364706 0.38572538
000220 a5 1d cc 3e c8 92 74 be 72 62 b8 3e da d3 3d be
       0.39866367 -0.23884118 0.36012608 -0.18537846
000230 1e 50 d3 3d 0f da 27 3d 6f 0a bc 3e 58 c1 c8 3e
       0.103180155 0.04097944 0.3672671 0.3921001
000240 23 98 82 bd 96 7b 21 3d 53 28 81 be 53 97 5d be
       -0.06376674 0.0394245 -0.25226077 -0.21639757
000250 8c a5 d2 3d 03 26 74 be 04 3a 50 bd 6a 78 97 be
       0.10285482 -0.23842625 -0.050836578 -0.29584056
000260 3d 50 98 3e f3 3b e2 3e b1 a6 06 be 1f 22 98 3e
       0.29748717 0.44186363 -0.13149525 0.29713532
000270 0d 24 5b 3e 2c 85 a8 3e 88 d1 5d be 57 7b 0d be
       0.21400471 0.32914102 -0.21661961 -0.13816582
000280 0d 06 b0 be d1 4a 6e be 15 38 a1 3e cc b5 b3 3e
       -0.34379616 -0.23270728 0.314881 0.35099638
000290 58 82 45 3e ed 4e 0e 3e 18 65 97 bd 3a 8f cf be
       0.19288003 0.13897295 -0.07392329 -0.4053896
0002a0 b6 12 4e 3e e9 5c 8e 3e 8e cb 84 3d 78 c9 af 3e
       0.20124325 0.2780526 0.064841375 0.34333396
0002b0 5d 8b 47 3e ce a1 b5 bc 13 f1 08 bb 26 c6 1b 3e
       0.19486757 -0.022171881 -0.0020895645 0.15212306
0002c0 d5 b4 c2 bd cd 0a a0 3c 0e 03 a9 3e a4 b8 36 3e
       -0.09507147 0.0195364 0.33010143 0.17843872
0002d0 4b e7 dd be 84 a1 53 3e b4 04 b0 be 32 dd 89 3e
       -0.43340525 0.20667082 -0.34378588 0.2692657
0002e0 0b a6 c1 bc 8a 2a 4a be 28 94 b2 3e 14 32 3d 3e
       -0.023638746 -0.1974279 0.3487866 0.18476135
0002f0 13 bb d9 3e 4b 62 a2 3e 79 4d b4 3d 8b 94 6b bb
       0.4252554 0.31715617 0.08803839 -0.0035946693
000300 7c 6b af bd 66 93 af 3e ee cf 7d be d5 43 a6 bd
       -0.08565423 0.34292144 -0.2478635 -0.08118407
000310 dc f3 d7 3e 8e 7d 4e be a7 af eb bd c4 16 02 3d
       0.42178237 -0.20165083 -0.115081124 0.031759992
000320 19 52 85 3e 88 df 4d bd 02 ca b2 3e 0c be c0 be
       0.26039198 -0.050262004 0.34919745 -0.37644994
000330 fd 17 aa 3d 05 38 51 3e 69 7e 13 3d 69 3a d1 bd
       0.08305357 0.20431526 0.036009226 -0.10216219
000340 c8 00 56 3e c9 67 b1 3e e2 5e d7 3d d9 4c 9f 3e
       0.20898736 0.34649494 0.10516144 0.31113318
000350 98 97 a1 be 7e 73 c6 be cf c4 ee bc 77 e9 86 bb
       -0.3156097 -0.3875999 -0.02914658 -0.0041171866
000360 97 70 cc 3e 5d af e9 be 6f 74 87 be e9 1a 7f 3d
       0.3992965 -0.45641604 -0.2645602 0.062281523
000370 c5 cf 2f 3e 08 fd 95 3d 93 8f 23 be 2c b1 98 3e
       0.17169102 0.073236525 -0.15972738 0.2982267
000380 b6 3b 86 be 30 d1 d1 be 11 5b b1 3c 2c 6c d1 3e
       -0.2621743 -0.4097991 0.02164987 0.4090284
000390 48 74 97 be d0 61 10 3e 6e 3a 2d be 2f 79 1a 3e
       -0.29580903 0.14099813 -0.1691682 0.1508529
0003a0 1f a5 64 be 13 03 b1 3e 60 bf e5 3e 44 9e df 3e
       -0.22328614 0.34572658 0.4487257 0.43675435
0003b0 68 e2 75 3e 92 e7 bd 3e 24 ef 4c 3e 73 7f 91 be
       0.24012148 0.37090737 0.200131 -0.2841755
0003c0 0a 7f 1b bd e2 82 04 3d 55 25 80 be 46 ac 18 be
       -0.03796295 0.032351382 -0.25028482 -0.14909467
0003d0 35 e8 c1 3e c0 c8 67 be ae 83 0b be 73 ee 6e be
       0.37872472 -0.22635174 -0.1362445 -0.23333149
0003e0 de 51 90 3e fc 09 e7 3e 55 85 64 be 0b 8c 86 3e
       0.2818746 0.45124805 -0.22316487 0.2627872
0003f0 cc e2 78 3e df 9e 56 be 3d 9b 62 bd 0b 24 fd bd
       0.24305266 -0.20959042 -0.055323828 -0.1236039

conv1.lin_l.bias f4 [64]
000000 c3 96 d2 bd b4 ff 0f 3e b1 34 60 3e 27 61 00 3e
       -0.10282662 0.14062387 0.218951 0.1253706
000010 cd 0c e7 bd 25 49 4b be 75 70 53 3e 97 f7 b0 3e
       -0.112817384 -0.19852121 0.20648368 0.34563896
000020 9c e6 9d 3e ad fe 29 3e 43 49 39 3d 06 6f ad be
       0.30840003 0.16601057 0.045235883 -0.33873767
000030 6c ff c5 3e b3 c8 28 3e df 7e 80 3e a2 a7 cd be
       0.38671434 0.1648281 0.25096795 -0.40166956
000040 cd 92 bb 3e f5 58 67 be a9 96 60 be 60 5e d2 3e
       0.36635438 -0.22592528 -0.21932472 0.41087627
000050 35 02 73 be ab 1d 46 be 1c c1 56 be aa bf 84 be
       -0.2373131 -0.19347255 -0.20972103 -0.25927478
000060 a8 31 53 3e 7f 49 c3 3e 0a 29 92 be a3 87 81 3e
       0.20624411 0.3814201 -0.28546935 0.25298795
000070 d1 41 81 3e b2 7c 70 be 6e ab e8 3d 70 10 a1 be
       0.25245526 -0.23485067 0.113608226 -0.31457853
000080 ea 5c b8 3e 30 a1 d3 be 9b 30 28 3d ed 50 69 be
       0.36008388 -0.41333914 0.04106198 -0.22784777
000090 12 66 be 3e cb f3 db bd 37 28 e2 be be 1c 63 be
       0.37187248 -0.10739859 -0.44171306 -0.22178933
0000a0 bd 48 3d 3d da 91 1c be a4 0a 70 3e 14 fd 87 3e
       0.046211947 -0.15290013 0.23441559 0.2656027
0000b0 3f 55 e2 bd 72 f1 27 3d 94 fe 84 3d dd 01 92 bd
       -0.11051416 0.041001745 0.064938694 -0.07129262
0000c0 ce 26 b8 be 0c 8a 6f 3d e5 2a c6 3e 22 a5 da be
       -0.35967106 0.05848126 0.387046 -0.4270411
0000d0 6d b0 a4 3e 80 70 6a 3e bf 77 c3 be 7d 72 0b be
       0.32165852 0.22894478 -0.38177297 -0.13617893
0000e0 e8 ae 01 be 7c 5d b5 3d 7d ad d4 bd 5f f7 d6 3d
       -0.12664378 0.08855721 -0.10384653 0.10496401
0000f0 90 c1 e0 be 66 fb ad 3e 84 d4 0c be 03 97 e6 3e
       -0.43897676 0.33980864 -0.13752943 0.45037088

conv1.lin_r.weight f4 [64, 5]
000000 73 ac 23 3d dd e7 c6 3e d2 46 14 3e 54 24 bb 3e
       0.039959382 0.38848773 0.14480141 0.36551154
000010 63 8f 8d be 72 5d ab 3d 9f ea f6 3d 76 64 d1 be
       -0.27648458 0.08367433 0.12056469 -0.40896958
000020 b3 05 74 be 06 f3 51 3c 2a f8 46 be 02 ff 5f be
       -0.23830299 0.012814289 -0.19430605 -0.21874622
000030 55 68 f8 3d 81 66 65 3e f7 f1 5b 3e 6c b7 25 be
       0.12129275 0.22402383 0.21479021 -0.16183251
000040 60 b0 8d 3e 03 30 c3 3d 64 6b 9f 3e 9e c7 d2 bd
       0.27673626 0.09530642 0.3113662 -0.1029198
000050 76 e6 78 be 37 7c b2 be f1 44 63 be 3b 91 be 3e
       -0.24306664 -0.34860393 -0.22194268 0.37220177
000060 a5 a2 2e be 53 4e d6 be de e5 27 3e 4d c6 ce 3e
       -0.17054231 -0.41856632 0.16396281 0.40385666
000070 72 5e 38 3d 25 ea 02 3d a9 d7 c6 3e a7 88 e1 3b
       0.045011945 0.03196158 0.3883641 0.0068827453
000080 e1 49 d6 3d 36 ae 41 3d a0 81 3b be 2d 09 dc be
       0.1046331 0.04728528 -0.18311167 -0.4297575
000090 30 e9 8f be 7d 0d a5 3e 7a 5b 32 bd 2a 1c b7 be
       -0.28107595 0.32236853 -0.04354427 -0.35763675
0000a0 f3 ce bb be 10 c3 9d 3e ad 5e 32 3e a6 e5 a0 be
       -0.36681327 0.30812883 0.17418928 -0.31425208
0000b0 76 ce 93 be be 0f 8a be 29 21 e4 be 2b 63 4a 3e
       -0.28868455 -0.26965135 -0.4455655 0.19764392
0000c0 39 8f 9e 3d c6 17 98 3e 1d 32 86 be 62 0d 60 3d
       0.07742161 0.29705638 -0.26210108 0.054700263
0000d0 9f 5f a9 3d 1d 7a 53 bd bd 76 43 3e 9a c9 b3 be
       0.082701914 -0.05163013 0.19088264 -0.35114747
0000e0 1c ce c6 3d e3 2c a6 3d af b2 79 be cf 76 93 bd
       0.09707281 0.0811403 -0.24384569 -0.07200395
0000f0 d1 f2 1a 3e fd 1e 1c bd 5c 10 45 be 90 62 df be
       0.1513169 -0.03811549 -0.19244522 -0.43629885
000100 8e fd bb 3e b9 dd b1 3d bf 5b 7a be a2 44 ac be
       0.36716884 0.08684868 -0.24449061 -0.33646113
000110 83 76 8a 3e ba cd 9a be 26 68 56 3e 37 f9 61 be
       0.27043542 -0.30235082 0.20938167 -0.22067724
000120 2f 8c 7c 3e 4c 48 8f be 1e cc af 3c d6 d7 89 bb
       0.24662851 -0.27984846 0.021459635 -0.004206638
000130 ce cb a0 be 94 32 8b be 03 f0 ab 3e 3d 00 9e be
       -0.3140549 -0.27187026 0.33581552 -0.30859557
000140 72 27 43 bc b6 9e cf 3e 5a 9b 25 3e 99 32 87 be
       -0.01191126 0.40550774 0.16172543 -0.2640579
000150 42 69 21 3d 66 4e 94 be 46 50 46 be 71 11 d5 3e
       0.039407022 -0.28966063 -0.1936656 0.4161487
000160 1a a7 c2 3e 93 a4 ac 3e d9 1a 5f be 88 9d 65 3e
       0.38018113 0.3371931 -0.21787585 0.22423375
000170 f3 88 cd be 2f e5 19 be 8c 09 5f 3b da bd 8a be
       -0.40143546 -0.15028833 0.003403279 -0.2709797
000180 b3 80 fc 3c ec 7c 1f 3e 0a 32 3b 3e 82 dd e3 bd
       0.030823087 0.15574998 0.18280807 -0.11126234
000190 a7 8d b5 3e 54 86 c8 3e c5 6d 1c be 47 d3 cc be
       0.35459635 0.39164984 -0.15276249 -0.40004942
0001a0 7a 85 27 be ce bd 33 3e ab a0 c2 be 36 80 a1 3e
       -0.16359511 0.17552873 -0.38013205 0.3154313
0001b0 3f 9e b4 3e 1e 7e ad be c4 1c da be 56 b5 6e be
       0.35276982 -0.33885282 -0.4260007 -0.23311362
0001c0 a4 81 c9 be dc ee ac 3e d4 ca bd 3e bb f9 a1 3e
       -0.3935672 0.33775985 0.37068808 0.31635842
0001d0 d4 18 c9 be c1 dc b4 3e 99 b9 b7 3e 95 eb 78 3e
       -0.39276755 0.35324672 0.35883787 0.24308617
0001e0 a9 22 0f 3e 4c 35 8d 3c e6 da 4f bd ab 81 0c 3e
       0.13978066 0.017237328 -0.050745867 0.1372134
0001f0 70 aa cf 3e f5 cc 4b 3d c1 30 8d 3e e4 b7 7b 3d
       0.4055972 0.04975601 0.2757626 0.06145467
000200 d9 92 d6 3e dd e5 25 be 57 ce 59 be 76 2c d5 be
       0.4190891 -0.16200967 -0.21270119 -0.41635484
000210 e7 24 ea 3d 74 a6 2b 3e d9 eb 6c be 21 2e a5 be
       0.1143282 0.16762716 -0.23136844 -0.32261756
000220 ee 0f b6 3c 4f 9d a5 be 6e 7f a8 be 46 17 dd be
       0.022224393 -0.3234658 -0.3290972 -0.4318182
000230 b3 57 87 be 5b ee 82 3e 3f 4c 98 bd 98 50 8c 3e
       -0.26434097 0.25572476 -0.07436418 0.27405238
000240 0a 5b 84 bd d8 d5 9d be 04 5c 1a 3d 86 8c b8 be
       -0.06462677 -0.30827212 0.03768541 -0.3604471
000250 28 a5 a6 bc 27 00 dc bd 81 d8 27 be 22 da 48 be
       -0.020342425 -0.107422166 -0.16391183 -0.19614461
000260 b5 ea 9b bc 21 44 b0 be 0a 35 22 be 2f 7e 89 3e
       -0.019032815 -0.34426978 -0.15840545 0.26854083
000270 9c 59 c3 3e b6 7f 40 3e 07 a0 5b bd 5d ea a6 bb
       0.38154304 0.18798718 -0.05361941 -0.0050938562
000280 12 0f 87 3e d7 79 e0 be 4a 5b b9 3e 15 93 8f 3e
       0.26378685 -0.43842956 0.3620246 0.28041902
000290 e3 21 a1 be 6c d7 e7 bd 31 40 8a be 74 d4 55 be
       -0.31471166 -0.11320385 -0.270021 -0.20881826
0002a0 8a 95 d7 bd 0b 80 5d be a7 7f 30 3e 46 f2 96 3c
       -0.10526569 -0.21630876 0.17236196 0.018426072
0002b0 5a 5d c1 be a4 50 6f 3e 5f 00 a5 be 84 6b 0a 3e
       -0.37766534 0.23370606 -0.32226846 0.13517576
0002c0 12 2a cc 3e cf eb 31 bd eb 0d 09 3c 65 fd d9 be
       0.39875847 -0.043437775 0.008365135 -0.42576137
0002d0 32 42 96 bd 95 df e2 bd 94 65 c5 3e bc 9f 61 bc
       -0.073368445 -0.11077801 0.3855406 -0.013770994
0002e0 8e df 99 3e ec bb ac be 01 6f b5 be b3 f3 b0 be
       0.3005337 -0.33737123 -0.35436252 -0.34560928
0002f0 aa da 2a 3d 59 0e bb 3e a3 6f c8 be 65 22 b7 3e
       0.04171244 0.36534384 -0.39147672 0.35768428
000300 38 5b 8d 3e b7 7f 9d be b8 85 0a 3e e0 43 9e bc
       0.27608657 -0.307615 0.13527572 -0.019319475
000310 8a 71 df 3e 66 4b bc be 30 72 82 be 11 df 24 3e
       0.4364131 -0.36776274 -0.25477743 0.16100718
000320 06 85 8f be f4 33 d6 3e e2 d7 a3 3e cc cd cb be
       -0.28031176 0.41836512 0.32000643 -0.39805448
000330 dd 18 a3 be 34 0b a8 3e cd 04 98 3e 29 78 c2 be
       -0.31854907 0.32821047 0.29691163 -0.379823
000340 20 ea bc 3b fd ec 42 bc c0 bf 1a 3e 55 61 aa 3e
       0.0057652146 -0.011897323 0.1511221 0.33277383
000350 cc 53 95 bd 59 51 91 3e 89 17 87 3e dd c6 eb bd
       -0.072913736 0.28382376 0.26385143 -0.115125395
000360 86 96 44 bd 61 7c 5a 3e a6 34 ce 3e 03 5a 3f be
       -0.047995113 0.2133651 0.40274543 -0.1868668
000370 e0 3e ce 3e bd 55 7b 3d 4f a2 d4 be 57 93 fb 3c
       0.40282345 0.061361063 -0.41530082 0.030709906
000380 cd 32 be 3d 52 7b d3 bd af fc b9 be bc ae 22 3e
       0.09287033 -0.10326256 -0.36325595 0.15886968
000390 ca b5 99 3e bc a4 53 bd e6 ea 08 be 71 53 54 be
       0.30021507 -0.051670775 -0.13370857 -0.20734955
0003a0 b9 6a d1 3e 52 c1 5f 3c 7f 1a 7a be 1c 3d cd 3e
       0.40901735 0.013656931 -0.2442417 0.40085685
0003b0 f6 85 de 3e ce 6a a7 3c 1a fe 8e be 21 62 9c 3e
       0.4346158 0.02043667 -0.2792824 0.30543616
0003c0 62 43 c3 3e 5a 96 f7 bc 19 89 98 3d e4 63 c3 be
       0.38137347 -0.03022306 0.07448024 -0.38162148
0003d0 0f 31 14 be b9 8d 72 be 63 f6 06 bd 34 09 94 be
       -0.1447184 -0.23686875 -0.032949816 -0.2891327
0003e0 c4 55 b4 be e7 10 eb bc 51 2c 5b 3e ad 8b 57 be
       -0.35221684 -0.028694583 0.21403624 -0.21049376
0003f0 71 e9 ae 3e 07 d3 d4 3e 62 e8 8f 3e 04 a9 97 be
       0.34162477 0.4156725 0.28106982 -0.29621136

conv2.lin_l.weight f4 [64, 64]
000000 e8 10 ea bc 9c 84 48 bd 1e 93 c7 3d 44 de d2 3d
       -0.028572515 -0.04895459 0.09744857 0.102963
000010 3e 3e 89 bd c5 9b c8 3c e7 17 f8 ba ee f5 a5 3d
       -0.06701325 0.02448834 -0.0018928022 0.08103548
000020 96 fb d6 3d cd 49 dc 3d 04 63 f8 3d 32 98 b2 bd
       0.10497205 0.10756264 0.12128261 -0.08720435
000030 ae ca b1 bd 18 d7 f8 3d a1 e0 10 bc 1e 19 85 bd
       -0.08681236 0.12150401 -0.008842618 -0.06498931
000040 3d 75 6d 3d 08 c2 85 3d 46 b5 b1 bd 14 8e 72 3d
       0.057973135 0.06531149 -0.08677153 0.059217528
000050 40 2b b8 3b 9c da 55 bd 93 51 f7 bd 62 6b df bd
       0.00562039 -0.052210435 -0.12076106 -0.109091535
000060 55 31 3d 3c 79 45 1e bd 7c 0e f6 3d 34 eb 91 bd
       0.011547406 -0.038640473 0.120144814 -0.071249396
000070 df 9e 8d bd c8 9f bf bd 1a 3f a2 bd d0 dd 48 3c
       -0.06915068 -0.09356648 -0.07922192 0.0122599155
000080 4f cd 15 bd 3c 5a 06 bd 02 d2 eb bd 64 86 55 bd
       -0.03657275 -0.032800898 -0.11514665 -0.052130118
000090 db 56 6c bc 63 f0 09 3d b8 69 95 bc 7c bd 98 3d
       -0.014425005 0.033676516 -0.018238887 0.07458016
0000a0 c1 e0 78 3d 98 52 c0 bd 93 0a e9 3d 18 c8 47 bd
       0.060761217 -0.093907535 0.1137897 -0.04877481
0000b0 7a 4a b9 bd b6 75 c5 bd cc 6a 24 bd 91 48 24 bc
       -0.090474084 -0.09641592 -0.040140912 -0.010027067
0000c0 16 3b 9e bd 17 10 ab bc cc 3c 31 bd 70 e5 ed 3c
       -0.077261135 -0.020881696 -0.04327087 0.029040068
0000d0 1b 47 85 3d 40 16 3c bd 3e a2 c1 bd 80 bd e1 3d
       0.06507703 -0.045919657 -0.09454773 0.110224724
0000e0 8d cb 48 3d 99 3b 5a bd 88 a9 c3 bc 63 18 67 bd
       0.049022246 -0.053279493 -0.02388455 -0.05641974
0000f0 28 46 86 bc b1 c7 73 bd e8 a5 a9 bd b9 4a c9 bd
       -0.016390875 -0.059516612 -0.08283597 -0.09828705
000100 e0 25 61 bd cc b5 a9 bd f3 97 05 3c d8 e1 bd bc
       -0.05496776 -0.08286628 0.008153903 -0.02317898
000110 2a cc ed 3c f3 46 95 bd 1c 55 84 3d 90 05 b6 bd
       0.029028017 -0.07288923 0.06461546 -0.0888778
000120 2d 35 a0 3d df 4d 0e bd ea 2a 2a bc c0 74 cb 3b
       0.078226425 -0.034742232 -0.010386208 0.006208986
000130 52 e4 92 bd c0 b3 2c 3c 4d fc 55 bd 4a 3b cb 3d
       -0.07172455 0.010540903 -0.052242566 0.09923418
000140 ae 7a ce bd 3e 9b ba 3d 2a 56 a1 3d 14 dc 72 bd
       -0.10081993 0.09111641 0.078777626 -0.059291914
000150 72 0f a6 3d 10 dc 64 bd 6f 48 7d bd 36 7f 89 bd
       0.08108415 -0.05587393 -0.061836656 -0.06713717
000160 ad c4 08 be b1 60 a1 3d ea 0c b4 bd ec ef ff 3d
       -0.13356276 0.078797705 -0.08791526 0.12496933
000170 3a df 47 3d 90 58 de bc 40 ba d6 3d 9e f0 c5 3d
       0.04879687 -0.02714184 0.10484743 0.09665035
000180 ba 75 ec bd 58 95 9d 3c 54 35 32 bd a0 7c 06 bc
       -0.11545892 0.019236252 -0.04350789 -0.008208424
000190 fa 7d e0 bd 03 92 e5 3d b0 39 82 bc 8e b3 f7 3d
       -0.10961528 0.1120949 -0.015896648 0.12094794
0001a0 00 00 08 be 2a 31 a9 bd c8 bc e8 3d e9 3e 5b bd
       -0.1328125 -0.082613304 0.11364132 -0.053526793
0001b0 5c 56 a4 3d 28 2f 12 bd 6c 1e 9f bd e0 5f c7 bd
       0.08024284 -0.035689503 -0.077694744 -0.097350836
0001c0 fc 0d 88 bd 75 0f 6f 3c 07 27 df bd a2 0e e8 3d
       -0.06643292 0.014591088 -0.10896116 0.11330916
0001d0 a7 2e f2 3c 2d 07 f4 bd c8 54 b8 3d 68 b4 a0 3c
       0.029563261 -0.11915431 0.09000546 0.019617274
0001e0 71 7a 9e bd 77 0d d2 bd 50 4d d9 3c 6c d2 8f 3d
       -0.077381976 -0.102564745 0.026526123 0.07022557
0001f0 80 e7 87 3d 3f 32 ea bc 16 13 d3 bd 7f bb 59 bd
       0.06635952 -0.028588412 -0.10306375 -0.053157326
000200 a8 10 d1 bd c8 3a 53 3d 41 87 6e bd 00 a4 61 3a
       -0.10208255 0.05156973 -0.058234457 0.0008607507
000210 7a b3 51 3d 0a ea 8b bc cf e1 a6 3d 0f 59 f0 3d
       0.051196553 -0.017079372 0.08148538 0.117357366
000220 92 48 9a bd 4c 45 94 bd 65 43 97 bc fa 5c f6 bd
       -0.07533373 -0.0723978 -0.018464753 -0.120294526
000230 71 41 b0 bb b4 04 da 3d 7e ae 0e 3d e8 22 8d 3c
       -0.005378895 0.10645428 0.034834377 0.017228559
000240 bf 3b 2e 3d f8 e6 93 bd 5e 52 b7 3d 00 44 3a bc
       0.042537447 -0.07221788 0.08951257 -0.0113687515
000250 1e 3a ae 3d 20 36 bd bc 4a 0a 88 bb 3a 17 8c bc
       0.08507179 -0.023097098 -0.004151617 -0.017100919
000260 61 d3 fe 3c 60 ee df bd ac 1f 2d 3d 7c b3 8d bd
       0.031106653 -0.10934138 0.042266533 -0.069189996
000270 5e be d7 ba 74 96 80 bd f8 10 9b bd 78 9c b2 bd
       -0.0016459932 -0.06278697 -0.07571596 -0.0872125
000280 60 19 89 bd 68 d3 a5 bc 84 4a 23 3d e6 13 c8 3d
       -0.06694293 -0.020242408 0.039865986 0.0976942
000290 12 1b b8 bd bf 02 a8 3d 04 ed b0 3d 78 51 db 3c
       -0.08989538 0.08203649 0.08638957 0.026772246
0002a0 a2 74 70 bd 80 2f c5 ba b3 1b 5f 3d f4 28 92 3c
       -0.05870498 -0.0015044063 0.054469775 0.017841794
0002b0 00 57 ac bd 04 91 8c bd 97 d2 c8 3d f5 da b9 3d
       -0.084150314 -0.06863597 0.09805792 0.09074966
0002c0 80 5a 3a 3d 51 c9 6d bd 63 35 cc 3d e0 ff 61 bc
       0.045496464 -0.05805332 0.0997112 -0.0137939155
0002d0 5e 79 09 bc 1d 8f ea bd 1d ee e5 3d ac f7 df 3d
       -0.008390753 -0.11453078 0.11227057 0.109359115
0002e0 5d b0 e0 3d 65 0b 0f bd 22 d4 e9 bd 95 c1 f3 3d
       0.109711386 -0.034922976 -0.11417414 0.11902157
0002f0 be 8b c6 bd 08 49 18 3d 4c 9b c5 bd ee d8 ec bd
       -0.096946225 0.037179023 -0.09648761 -0.115648136
000300 c0 fb ea bc 0e d8 f7 bd 9a 99 1a bb ac 1e 84 3d
       -0.028684497 -0.12101756 -0.0023590089 0.06451163
000310 29 92 4d bc 6d 86 c5 3d 2c 3f 6a bd d2 ac b8 bc
       -0.012547054 0.0964478 -0.05718915 -0.022543345
000320 c9 12 3c 3d 83 3c 76 bb 68 f0 ed 3d 8a f5 a8 bd
       0.045916352 -0.003757269 0.116181195 -0.08249958
000330 45 59 11 3a f4 04 e5 3d cd 37 81 bd ae 31 96 bd
       0.0005544613 0.11182585 -0.06309471 -0.073336944
000340 92 78 b1 bd c0 41 78 bc 6c c0 2c bd e6 ec 8f bd
       -0.08665575 -0.015152395 -0.042175695 -0.07027607
000350 a8 61 e5 3c ca 59 ce bd 9b a6 8d 3d 1b 66 1d 3d
       0.028000668 -0.1007572 0.06916543 0.038427453
000360 03 33 d6 3d 9e 6c f1 39 b8 10 91 3d 68 2e fd 3d
       0.104589485 0.00046048028 0.07083267 0.12362367
000370 a9 28 8d bd e8 92 89 bd 30 39 89 bd 64 e9 dc 3d
       -0.06892521 -0.06717473 -0.06700361 0.10786703
000380 c6 c6 0b 3d 9c 9f 5e 3d 18 bc 80 3c a4 04 42 3d
       0.034125112 0.054351434 0.01571469 0.047367707
000390 43 8a 28 bc 92 93 9e 3d 96 9f fd 3d 60 52 e4 3c
       -0.01028687 0.077429906 0.12383954 0.02787131
0003a0 3e f6 d5 bd 88 de 11 3d 6f 4c cc bd 7e 03 91 3d
       -0.104473576 0.035612613 -0.09975516 0.07080744
0003b0 1e 50 a9 bd 04 20 cc bd cd 66 f2 3b 69 7a 34 3d
       -0.08267234 -0.09967044 0.0073975087 0.044062052
0003c0 90 c5 33 3d 15 1d 8e 3c 02 bb bd 3d 0c 6d 3b bd
       0.043889582 0.017347852 0.092641845 -0.045758292
0003d0 75 39 1c 3d bc 5d b2 3d a3 17 be bd 78 18 fa bd
       0.038140733 0.08709285 -0.09281852 -0.12211698
0003e0 c9 5c 53 bd 20 68 f3 bd 50 0d 8f 3d 94 39 df bd
       -0.05160216 -0.11885095 0.06984961 -0.10899654
0003f0 00 0e 8f ba cc 0a bc bd 7c e9 75 bd 62 a6 3e 3d
       -0.0010914207 -0.09181747 -0.06003712 0.046545394

conv2.lin_l.bias f4 [64]
000000 0c 71 dc 3d a7 ba 78 3c b2 62 00 bd 60 8b cb bd
       0.107637495 0.01518122 -0.031344123 -0.09938693
000010 50 4c 8f bd 5a f9 7a bd 00 25 b2 3d d9 9b b9 3d
       -0.06996977 -0.061272956 0.086984634 0.09062929
000020 22 d0 2d 3d b0 52 58 bc 0f e7 94 bd 70 0a 95 3d
       0.04243482 -0.013203308 -0.072706334 0.072773814
000030 25 fd 2a 3d 53 c5 18 3c 5c cc 41 3d 82 2e f7 3d
       0.041745324 0.0093243895 0.047314033 0.120694175
000040 4c 0c b2 3d 1d 46 02 be 25 f9 02 be 4e 7f 03 bc
       0.08693752 -0.12722059 -0.12790354 -0.008025957
000050 be 7c 96 bd 5e 75 fe 3d 52 09 a9 bc 52 ec ab bd
       -0.073480114 0.1242473 -0.020634327 -0.08394684
000060 5b a3 b3 3d e0 e2 51 bd db 16 e0 3d 1c 69 93 bd
       0.08771392 -0.051241755 0.10941859 -0.071977824
000070 70 4e 40 3c 24 97 83 bd 17 41 ea bc a9 58 b2 bc
       0.011737451 -0.06425312 -0.02859549 -0.021770792
000080 b8 dd e1 bd 7a 27 e3 bc 84 72 d1 bc 82 95 2e bd
       -0.110286176 -0.027728785 -0.0255673 -0.04262305
000090 12 b1 1b 3d 6e d6 b5 3c 10 c0 0b 3d 77 7b d6 3d
       0.038010664 0.022196975 0.034118712 0.10472768
0000a0 e1 b6 0c 3e 50 e7 5b bc 0b 72 82 bd c0 a7 f3 bb
       0.13741638 -0.013421848 -0.06369408 -0.007435769
0000b0 b4 bd 67 bd 53 25 bc 3b 19 01 a1 bb 08 81 c1 3d
       -0.0565774 0.005741754 -0.004913461 0.09448439
0000c0 fe 6d 26 bd d8 57 a8 3d 39 73 c0 3d c9 c4 05 bd
       -0.04063224 0.0821988 0.09396977 -0.032658372
0000d0 77 c4 02 bc ab 6d e3 bc 37 53 37 3d 65 5b a8 3d
       -0.007981411 -0.027762255 0.044757094 0.08220557
0000e0 64 6d e2 3a e1 b2 6d b9 a1 8b 3b bd 92 20 a4 3d
       0.0017275033 -0.00022668719 -0.045787457 0.08014025
0000f0 bb 63 b8 bd 9b 7c ff 3c a5 14 00 be bd 53 de bd
       -0.09003397 0.031187346 -0.12507875 -0.108558156

conv2.lin_r.weight f4 [64, 64]
000000 22 90 d7 bd 6a 47 a9 3d 86 d5 c6 bd 7a 0d 8b bd
       -0.10525538 0.08265574 -0.09708695 -0.0678968
000010 60 3d f2 3d 6e 49 92 bd 62 12 c3 bd 81 6a 16 3d
       0.118281126 -0.07142912 -0.095249906 0.036722664
000020 e5 2e 92 3c ab ff 90 3d ce 49 e7 bd 68 98 a3 3d
       0.017844627 0.07080015 -0.11293374 0.079880536
000030 16 d3 fc 3a 78 78 2e bd 5e 50 1a bd 42 3a c7 bd
       0.0019288983 -0.042595357 -0.0376743 -0.09727909
000040 c4 56 62 bd 46 26 ff 3d e4 d4 d3 bd 88 59 f9 3d
       -0.055258527 0.12458472 -0.1034334 0.1217528
000050 08 d4 a3 3c d4 79 fe bd b5 53 b1 3d 3a b1 fb ba
       0.019998565 -0.124255806 0.08658544 -0.0019202598
000060 12 d2 44 bd 47 c3 1f 3d 20 24 6a bc 34 8b de 3d
       -0.0480519 0.03900459 -0.014290839 0.10866395
000070 eb 50 b8 3d 9c ec 65 bd 54 7b b6 3d a0 8a 86 bb
       0.08999809 -0.05613385 0.08910242 -0.004105881
000080 24 7e eb bd 88 f9 8d 3c 30 52 05 3d b4 14 19 bd
       -0.11498669 0.0173309 0.032549083 -0.03737326
000090 d4 32 99 3c 46 ee d6 3d f4 01 21 bd b0 a6 cd bd
       0.018700995 0.10494666 -0.039308503 -0.10041559
0000a0 37 83 74 bd 36 35 df 3d cd b8 c7 bd ac c9 f9 bd
       -0.05969545 0.10898821 -0.09752045 -0.12196669
0000b0 5c 5b 0d 3d 97 9b 52 3b a5 35 90 3d 85 32 ad 3d
       0.034510955 0.0032136196 0.07041482 0.084569015
0000c0 10 73 41 bd 58 2e de 3d b4 af 52 3d 24 d7 32 bd
       -0.047228873 0.10848683 0.051437095 -0.043662205
0000d0 29 1e c8 bd 3b 19 0e bd e2 c7 97 3d 50 5c 00 3c
       -0.097713776 -0.03469203 0.074111715 0.007834509
0000e0 c1 55 6a 3d 63 1a 89 3d fa cb ba 3d 76 ec 87 3c
       0.057210688 0.06694486 0.09120937 0.016592246
0000f0 30 c7 09 3c 3f 36 3c 3d b4 18 7d bd 85 fc aa bd
       0.008409306 0.04595017 -0.061791137 -0.083489455
000100 c0 23 63 bc be 45 f5 3d 4a 7e 72 3d 7e c2 8d bd
       -0.013863504 0.11976193 0.05920247 -0.06921862
000110 35 b5 83 37 4e f2 8b 3d 6a ed 8e bd 7c 4e 74 3d
       1.5700798e-05 0.06833325 -0.06978877 0.05964516
000120 30 39 13 bd 36 41 ce bd f4 f6 32 3d 4a 7b 88 bd
       -0.03594321 -0.10071032 0.043692544 -0.066641405
000130 ca e6 dc 3d 60 3d 91 3c 1b c0 99 3d 7e a5 d4 bd
       0.10786207 0.017729461 0.07507344 -0.10383128
000140 75 f2 2c bb 68 0d 73 bd 10 4e 20 bd 02 00 f4 bd
       -0.0026389633 -0.059338957 -0.039136946 -0.11914064
000150 fe d9 90 bd de 36 fd bd 53 41 95 3d f3 7b 6e bd
       -0.07072829 -0.12363981 0.0728785 -0.058223676
000160 e5 67 e8 3d 26 7c 2b bc a0 f8 77 bc 80 5d d9 3d
       0.11347941 -0.010466611 -0.01513496 0.10613537
000170 c8 7d 0c 3b e8 24 0a 3d f4 44 65 3d 94 e2 6d bd
       0.0021437276 0.033726603 0.055973962 -0.05807741
000180 de 0c ce bc ea fc e3 bd 0a 0b c1 3d c8 bd 95 bd
       -0.02515262 -0.11132224 0.09425934 -0.073115885
000190 2f c5 f4 3a 75 1e ad 3d 10 07 a4 bd 00 54 fb bb
       0.0018674488 0.08453075 -0.080091596 -0.0076699257
0001a0 53 72 25 bd c0 9c 4f bd 6e 4f ce bd 33 3c ba bd
       -0.04039223 -0.050686598 -0.10073744 -0.09093513
0001b0 64 5f 87 bd 20 70 73 3d 0c 14 dd 3d a2 68 e5 bd
       -0.06609991 0.059433103 0.10794839 -0.11201598
0001c0 3c a3 e8 3d de 7e 83 3d 09 03 d5 bd 84 27 d2 3d
       0.113592595 0.06420682 -0.104009695 0.10261443
0001d0 ed 2f 62 bd b7 99 72 bd a4 52 c6 bd e8 cc 15 bd
       -0.055221487 -0.059228625 -0.09683731 -0.036572367
0001e0 e3 34 2f bc 20 88 99 3c 18 b6 32 bd bb 8d 14 bd
       -0.0106937615 0.018741667 -0.04363069 -0.036267977
0001f0 6c 8f eb 3d 79 03 88 3d 28 e9 bb bd 7d 36 35 3d
       0.11501965 0.06641287 -0.091753304 0.044241417
000200 78 19 c9 bc de 1c e9 bd e3 b5 d2 3c 10 03 6e bc
       -0.024548277 -0.11382459 0.025721496 -0.014527097
000210 fa 11 68 3d 38 3e cf bd ed 9d 11 3e 4e 5b d2 bc
       0.05665777 -0.10119289 0.142204 -0.025678303
000220 aa 51 c6 ba 5c 7d e2 ba 55 01 00 3e ba 22 c6 3d
       -0.0015130539 -0.0017279792 0.12500508 0.09674592
000230 d1 89 c2 3c 8c 3f 60 3d d1 56 2e bd 80 f3 37 3c
       0.023747357 0.054748103 -0.042563263 0.0112274885
000240 22 eb ab 3d c8 8f 4d 3d 6c ed ea 3d 1c 50 58 bd
       0.083944574 0.05018595 0.11471066 -0.052810773
000250 7a 96 a2 bd 90 78 a7 bd 93 02 c8 bd b3 b5 a0 3d
       -0.079388574 -0.08177292 -0.09766116 0.078471564
000260 01 22 6a bc 6a a4 c6 bd 28 71 04 3d 80 6b 2b 3b
       -0.014290334 -0.09699328 0.032334477 0.0026156604
000270 77 31 ad bc da b8 fd bd 0c 82 62 3d 16 83 de 3d
       -0.02114175 -0.12388773 0.055299804 0.108648464
000280 2e b3 7e bd 60 dc af 3d 24 4e 20 bd 80 e2 c3 bd
       -0.062182598 0.08586955 -0.03913702 -0.09564686
000290 1c d3 cb 3d e0 42 3b 3d 4e a1 c1 3d 94 69 fb bd
       0.09952375 0.045718074 0.094545946 -0.12275997
0002a0 f0 8b 71 3d e6 cc bb 3d cf 0a 24 bc ef 6c 86 3d
       0.058971345 0.09169941 -0.010012343 0.06563746
0002b0 7a 3e b8 bd 81 47 62 3d e3 75 37 bd 7f ad e3 3d
       -0.089962915 0.055243973 -0.04479016 0.11117076
0002c0 bc 2c c0 3d e9 0d 20 3c ad 45 99 3d b8 66 e6 3d
       0.093835324 0.009768941 0.07483993 0.11250061
0002d0 e2 fd 79 bd 97 23 dc 3d 8f 8b dd 3d 04 f1 e2 3d
       -0.061033137 0.10748976 0.10817634 0.11081126
0002e0 19 9b 8f 3d b6 bd cc 3d 0c 68 0a 3d 8c a6 11 bd
       0.070120044 0.09997122 0.033790633 -0.035559222
0002f0 66 70 be 3d bc 20 cf 3d cc e4 0a 3d 5f 6a 18 3d
       0.09298782 0.101136655 0.033909604 0.03721082
000300 96 be c3 bd e0 2a 0b bd fd ba 62 3d a8 49 d6 bd
       -0.09557836 -0.033976436 0.055354107 -0.104632676
000310 d9 cc 6e bd 7d d4 c4 bd 05 34 c1 bd b5 9a 2a ba
       -0.058300827 -0.096108414 -0.0943375 -0.00065080385
000320 de fc e2 3d f3 3f f5 bd dc df 8c 3d 32 52 87 bd
       0.11083387 -0.11975088 0.06878635 -0.066074744
000330 e4 e3 04 3d 16 77 dc 3d 0e d7 b2 3c 60 1a bb 3d
       0.032443896 0.10764901 0.021831062 0.0913589
000340 cc c9 31 bd 70 fa e6 bd 64 c0 84 3d 92 07 f1 3d
       -0.04340534 -0.11278236 0.06482008 0.11769022
000350 fa d5 9b bd 20 0d 81 3b b1 c6 23 3b 7f 7e f4 bd
       -0.07609172 0.003938332 0.0024990255 -0.1193819
000360 b5 61 ed 3d 62 d6 48 3d 9c 64 9a 3d 08 4c d7 bd
       0.11590902 0.049032576 0.07538721 -0.10512549
000370 be dc 11 bd 70 62 61 3d e2 b0 8f 3d 14 91 8f 3d
       -0.035610907 0.055025518 0.070161596 0.07010093
000380 12 ac df 3d d6 7b 91 bd 4e 8e ec bd 58 df e8 bd
       0.10921492 -0.07103698 -0.1155058 -0.113707244
000390 23 61 78 bc ae 1e f8 bc 08 13 e2 3d 30 b7 50 3d
       -0.015159878 -0.030288067 0.11038786 0.05095595
0003a0 be 05 8f bd 20 e8 ed bb b5 90 0d bd 1a 3e 81 3b
       -0.06983517 -0.0072603375 -0.03456183 0.0039441707
0003b0 a0 73 a2 3c cc 96 c6 bd 86 a6 b5 3d 34 9a d2 bd
       0.019830525 -0.09696731 0.088696525 -0.10283318
0003c0 c8 86 56 3d a4 ec 6f 3c c7 7c 3e bd 7a a4 88 bd
       0.05237463 0.014643822 -0.046505716 -0.066719964
0003d0 b6 b6 b0 3c 6e 8b 9d bd ed 21 dc bd ec 2a 9b bd
       0.021571498 -0.0769261 -0.10748658 -0.07576546
0003e0 77 9d 14 3c cf 61 f9 3b 78 ab 7d 3d 56 74 56 3d
       0.009070746 0.0076105366 0.061931103 0.05235704
0003f0 88 86 f2 bd 0a 08 ce 3d da 75 c4 3d 02 75 7d 3d
       -0.11842066 0.10060127 0.09592791 0.061879165

conv3.lin_l.weight f4 [32, 64]
000000 e2 56 f0 bd f4 f1 cc 3d 52 49 46 bd e3 8a d6 bd
       -0.117353216 0.100070864 -0.048409767 -0.10475709
000010 7c 7b f4 bd 0a c2 5c bc 78 9c 03 be 5a ba d8 3d
       -0.11937615 -0.013473997 -0.12852657 0.10582419
000020 cb c6 91 bd 0b c7 89 3d 86 37 95 bd ae 22 b7 bb
       -0.07117995 0.067274176 -0.07285981 -0.005588851
000030 e6 c4 85 bc 2b cf da bd 5e b4 df 3d a3 ee e0 3d
       -0.01632924 -0.106840454 0.10923074 0.10983016
000040 74 75 0f bd 25 f7 f3 bd b5 3e 81 bc c9 77 09 be
       -0.03502412 -0.119123735 -0.015776971 -0.134246
000050 f4 56 c2 3d db bc ad bd 34 d6 91 3d 6a 81 86 3d
       0.09489241 -0.08483287 0.07120934 0.065676525
000060 fe 27 d1 3d 27 91 d2 bd c7 f0 dc 3d b3 97 95 bd
       0.10212706 -0.10281592 0.10788112 -0.07304325
000070 f0 37 95 bc ae c5 b5 3d 2b 5c 37 bd 91 10 86 3d
       -0.01821515 0.08875595 -0.044765633 0.065461285
000080 18 13 c9 3c c9 49 bc 3c e7 61 b9 bd 14 2b 9e 3d
       0.024545237 0.022984402 -0.090518765 0.0772306
000090 62 04 a5 3d bb 47 d0 ba a0 91 ca 3d 4b ed ca bd
       0.080574766 -0.0015890518 0.09891057 -0.09908541
0000a0 8e 81 11 3d aa 8a df 3c 94 a9 cb bd e0 28 e8 bb
       0.035523944 0.0272878 -0.09944454 -0.007084951
0000b0 ec 62 9f bd cb b7 c9 bd 99 30 b8 3c e9 64 92 3d
       -0.0778254 -0.09849509 0.02248411 0.07148153
0000c0 4f 5c 72 bd 9d ef a8 bb 79 96 8c bd fc 09 9d bc
       -0.059170064 -0.0051555173 -0.06864638 -0.0191698
0000d0 06 08 8d 3d cd cb 4c 3d ce 47 fd bd ee e6 9a bd
       0.06886296 0.049999047 -0.12367211 -0.075635776
0000e0 6f 56 bd 3b b1 d4 ef bd 4b d2 82 3b 18 b2 c4 bd
       0.005778126 -0.117104895 0.003992354 -0.09604281
0000f0 a2 a2 f0 3d 8a a1 a1 bd a1 8f 62 3d 92 65 9b bd
       0.1174977 -0.07892139 0.055312756 -0.075877324
000100 37 c6 9a 3c 79 df dc 3c 49 78 9f bd e8 bf 8d bd
       0.018893344 0.026962029 -0.077866144 -0.06921369
000110 63 b0 93 3d 74 5f 72 bd 49 76 ec bc 23 34 22 bc
       0.072113775 -0.059173062 -0.028864997 -0.009900126
000120 55 cc 01 3e 54 4c aa bd 55 7a ab 3d d9 b9 df bd
       0.12675603 -0.0831534 0.08372942 -0.109241195
000130 c5 3a ae 3c 5c 77 a9 3b 25 62 67 3c 4d 99 d0 3d
       0.021268258 0.0051716994 0.014122521 0.1018549
000140 15 14 9d 3c a3 99 bd bd 5d d3 94 3d 2e 08 b6 3d
       0.019174615 -0.092578195 0.07266877 0.08888279
000150 26 0e aa bd 7d ac ac 3c 4d e9 92 bd 8b 1b 4d bc
       -0.0830348 0.021078343 -0.07173405 -0.012518774
000160 af e5 fe 3d 66 50 43 bd cd 19 e9 3d c6 b0 69 bc
       0.124461524 -0.047684096 0.11381874 -0.0142633375
000170 4a b6 91 bd 0b 21 f5 bc 4d 54 56 bd f5 21 c1 3d
       -0.07114847 -0.029922983 -0.05232649 0.09430305
000180 dd 90 f1 bd ed 6b 11 bd 51 8e 28 3d 94 c5 6f 3d
       -0.117952086 -0.035503317 0.04115135 0.058538035
000190 86 b0 36 bd f5 15 a3 bd 01 58 4f bd e2 55 32 3d
       -0.04460194 -0.07963172 -0.050621036 0.043538935
0001a0 6c bc b9 3d ec 66 8a 3b 2e 59 90 3d 2a b5 86 3d
       0.09069142 0.004223695 0.0704826 0.06577523
0001b0 ad a8 d7 3d ab 7f a3 bd 1a 0c a6 39 3f 8b d5 bb
       0.10530219 -0.07983335 0.00031671004 -0.0065168436
0001c0 e1 c5 48 3b 6e 11 97 3c 87 39 0e bd 16 c3 c0 3d
       0.0030635523 0.018440928 -0.03472283 0.0941221
0001d0 3c 0b a5 3d ab d9 51 bc dc 5e 20 3d 16 57 e2 bd
       0.080587834 -0.012808244 0.039152965 -0.110517666
0001e0 9a 00 81 bd ed 44 01 3e d3 dd 3e bd 34 f5 a9 3d
       -0.06298943 0.1262395 -0.046598267 0.08298722
0001f0 cd 2e 9c 3c a4 66 bf bd 6e 81 a1 bc cc 03 e2 bc
       0.019065285 -0.09345749 -0.019715037 -0.027589701
000200 0b 44 a4 bd 6c 1d 88 bd b6 77 aa 3d 8b 7e e0 3d
       -0.08020791 -0.06646237 0.08323614 0.10961636
000210 42 93 6f bd c0 0e 86 bd 9e 8b 68 3c c6 29 c4 bd
       -0.058490045 -0.06545782 0.014193444 -0.0957828
000220 39 57 e6 3d d7 72 d6 3d 6e 57 00 bd c8 b8 79 bd
       0.11247105 0.10471123 -0.03133338 -0.060967237
000230 6f fc a1 bd e3 63 62 bd 38 95 88 3d ba 63 74 3d
       -0.07909476 -0.05527104 0.06669086 0.05966542
000240 b5 7a c7 bd 72 55 4e 3d 37 70 f2 bd 79 52 7f bd
       -0.097402014 0.050374456 -0.118378095 -0.06233451
000250 85 2c 50 bd 02 8a 18 bd b7 e6 6c bd 0b 1a ad 3d
       -0.050823707 -0.03724099 -0.057837214 0.08452233
000260 c4 ea 21 3d 18 aa a8 3d 57 a0 64 bc d8 c4 8b bc
       0.03953053 0.08235568 -0.013954244 -0.017061636
000270 1d ef c8 3c 2b b9 e3 b9 48 69 8a 3c 5e 21 e8 bd
       0.02452808 -0.00043434775 0.016895905 -0.11334489
000280 6c 3e 26 3d da 99 4d bd 0b 99 b5 3d ed 0d fd 3c
       0.040586874 -0.050195552 0.08867081 0.03089043
000290 ac b0 ee 3d e4 31 d3 3d 79 b5 8f bd 82 c0 ce 3d
       0.11654791 0.1031225 -0.07017035 0.10095312
0002a0 18 cc 6c bc 85 30 4f bb eb d1 ea 3d ec 73 2c bd
       -0.014452957 -0.0031614613 0.1146582 -0.04210274
0002b0 b9 d8 5f bd ab 6f b3 3d 24 56 17 3d 5a 46 3e 3d
       -0.054650042 0.08761533 0.036947384 0.04645381
0002c0 c8 37 05 3d bd 68 c8 3c c6 aa 9c 3d e4 f4 ac 3d
       0.0325239 0.024464006 0.0764976 0.08445147
0002d0 4e 58 39 3c 71 f7 02 3e ac 7c 1e bd 4c cc 96 bc
       0.011312557 0.12789704 -0.038693115 -0.018407963
0002e0 99 a2 c0 3c 04 65 8e 3c 1e 48 5a 3d c2 16 09 bc
       0.023515033 0.017382152 0.053291433 -0.008367242
0002f0 de bd c8 3c c4 40 84 bd 63 92 da bc b3 ff bf bd
       0.024504598 -0.064576656 -0.02668113 -0.09374943
000300 a0 f9 76 bc ff 50 83 3d 37 3a 7d bd 1e c6 47 3d
       -0.015074164 0.06411933 -0.061823096 0.048772924
000310 fe 1b c3 bc c9 87 9d bc 13 6c 53 3d e7 77 25 bd
       -0.023817059 -0.019229786 0.05161674 -0.04039755
000320 92 f8 d9 bd b5 73 7e 3d b3 fc ec bd c0 21 f4 3d
       -0.10643114 0.062122066 -0.11571636 0.119205
000330 73 13 c2 bd f4 3f 57 bd 49 4f b6 3d 88 0f b6 3c
       -0.09476366 -0.052551225 0.08901841 0.022224203
000340 5c 87 9e bd 77 12 84 3d 9c 65 96 3d 07 28 dd bd
       -0.077406615 0.064488344 0.07343599 -0.1079865
000350 22 17 c5 bd 22 8a cb 3d fb 9f c6 bc 5c 57 dd bd
       -0.09623553 0.09938456 -0.024246207 -0.10807678
000360 7d f2 24 3d d0 20 b1 3d 00 8f 9e 3d ac ef 00 be
       0.040270317 0.086488366 0.07742119 -0.12591428
000370 d4 8c 6f 3c 04 41 91 bd ee 79 79 bd bc a4 d2 bd
       0.014620978 -0.07092479 -0.060907297 -0.10285327
000380 6e 1b bb bb ac 96 ad bb 7d 80 02 be 3c 2a 36 bc
       -0.005710057 -0.0052975025 -0.12744327 -0.011118468
000390 1c ea 1f 3c 28 b2 96 b9 9f 1b 8d bc f3 ce be bd
       0.009760406 -0.00028742966 -0.017225085 -0.09316816
0003a0 c5 1d 33 b9 a8 9e bd 3d e0 b0 c6 bb 80 7f fb bd
       -0.0001708186 0.09258777 -0.0060635656 -0.12280178
0003b0 14 a6 80 bd 33 24 cd bd 7b de 10 bd e3 7a 68 3c
       -0.06281677 -0.1001667 -0.035368424 0.014189455
0003c0 02 4c 01 be 26 c5 f1 3d 05 a7 a2 3d 29 14 03 3d
       -0.12626651 0.11805181 0.07942013 0.032001648
0003d0 27 44 01 3e a9 38 08 bd d3 a6 54 3d 52 76 a4 3c
       0.12623654 -0.03325716 0.05191691 0.02007595
0003e0 ae 82 ab bc f3 6b 10 bc 79 f6 e4 bd e2 9a 9d bd
       -0.020936336 -0.0088148 -0.111798234 -0.07695557
0003f0 11 2c 87 3d d0 75 72 bd 95 af a2 bd a8 08 a1 3c
       0.06600202 -0.059194386 -0.07943646 0.019657448

conv3.lin_l.bias f4 [32]
000000 2f f3 0e 3d a3 95 44 bc 95 cb 41 bd bb 94 e8 bc
       0.034899887 -0.011998567 -0.04731329 -0.028391233
000010 6f b3 45 3d 8c b7 98 3d 68 c8 f6 3d 68 3e 23 3d
       0.048266824 0.07456884 0.12049943 0.039854437
000020 eb a4 98 bd 60 82 89 3d f4 38 ad bd 7e 55 b2 3d
       -0.074533306 0.0671432 -0.084581286 0.087077126
000030 47 95 f1 b5 11 a8 e0 3d 07 22 6c 3d 1d 5d 50 3c
       -1.7999345e-06 0.10969556 0.05764964 0.012717512
000040 ad 79 83 3d 5c 32 bf 3c d8 1a f9 bd e8 4f f7 bd
       0.06419692 0.023339443 -0.12163323 -0.12075788
000050 cd 3c 7d 3d 67 4a e3 bd 6f a6 d1 bd eb af e4 bd
       0.061825562 -0.110981755 -0.10236823 -0.11166366
000060 d9 93 c0 3b 68 50 6a 3d a5 e7 fa bc 78 cb bd 3c
       0.005877 0.057205588 -0.030628035 0.02316831
000070 d1 ed bd bc 03 04 3e bd 2f 9c ea 3d 8b e5 d2 3c
       -0.023184689 -0.046390545 0.11455571 0.02574422

conv3.lin_r.weight f4 [32, 64]
000000 b4 2f a9 bd 74 3a 89 3d 46 65 12 3c 50 7f 6d 3c
       -0.08261052 0.06700602 0.008935278 0.014495686
000010 a5 c6 82 bd d1 28 09 3d 15 ba ff bc 84 6a 4c 3d
       -0.06385545 0.03348619 -0.03121666 0.04990627
000020 27 06 91 bd 75 c7 8a bd 13 eb 65 3c 6e 7b a9 3d
       -0.070812516 -0.06776325 0.014033097 0.082754955
000030 57 e2 ab bd 47 2e 84 3d 7c f9 42 3d a5 e8 d7 3d
       -0.0839278 0.06454139 0.047601208 0.1054242
000040 46 4f 17 bd 94 c4 5e 3d 46 07 ba 3d cf b6 e1 bc
       -0.036940835 0.05438669 0.090834185 -0.02755299
000050 70 69 d9 3c eb 0a 2d 3d 1c 96 15 bc 72 dc f2 3c
       0.026539534 0.04224674 -0.009130027 0.029646132
000060 08 28 ce bd cb 67 c2 3d 56 79 7f bd 91 6b d0 bd
       -0.10066229 0.09492453 -0.062371574 -0.10176767
000070 9d 1f 1e 3d 0f 0b 9a bc 09 02 e7 3d 71 de b2 3d
       0.038604368 -0.018804101 0.11279685 0.087338336
000080 6e 21 b8 3d 2f 47 2d 3d 4b b2 bb 3d 0a 5d f7 bd
       0.08990751 0.042304214 0.09164866 -0.12078293
000090 6b 37 47 3b 89 08 1b bd 7a 1e d0 bd df d7 17 bb
       0.0030398022 -0.037849937 -0.10162063 -0.002316944
0000a0 1d 8c f9 bd 3e 78 f0 3d 7e d1 c2 3d 5a 01 da 3d
       -0.121849276 0.117416844 0.09512614 0.10644789
0000b0 e5 de 54 bd ef 04 a6 3d 81 90 33 bc 48 2b 7f bc
       -0.05197038 0.0810641 -0.010959745 -0.015574284
0000c0 6c 14 d6 bd 58 c9 4f bd c9 45 e6 bd 8d 9e 41 3c
       -0.10453114 -0.050729126 -0.11243779 0.011817587
0000d0 99 c7 2e 3c 27 b2 6d bd da 06 1d bd 40 63 df bd
       0.010667705 -0.058031227 -0.038336612 -0.10907602
0000e0 e1 0c 15 bd af 48 81 bd 5a f9 bd bd 9d 40 85 3a
       -0.036389235 -0.063126914 -0.09276076 0.0010166351
0000f0 52 c3 b7 bd d7 54 f8 bc 31 0e cd bd 12 b8 b1 bc
       -0.08972801 -0.030313892 -0.100124724 -0.021694217
000100 8f bd cd 3c 64 40 8e 3d f2 19 08 3e b6 1f 8c bd
       0.025114803 0.06945875 0.13291147 -0.06841986
000110 cd bc d2 3d 01 1a d9 3d ac 00 01 bc 81 df cb 3d
       0.10289917 0.10600663 -0.007873695 0.09954739
000120 32 1f 66 bd 18 73 dc bd 23 07 aa bc ef 0b cd 3d
       -0.056182094 -0.1076414 -0.020755356 0.10012042
000130 25 f7 ec 3c b9 e0 6c 3b 01 b9 b1 3d b9 67 c5 3d
       0.028926441 0.0036144687 0.08677865 0.09638924
000140 3b 41 fa 3d 5c 55 4d bd 28 b5 8a bc 17 a5 cf 3b
       0.12219473 -0.050130233 -0.016932085 0.006336819
000150 1c cd a4 bd 3f ef 8a 3d 8d df d1 3c bc c3 84 3d
       -0.08046934 0.06783914 0.025619293 0.06482646
000160 4b 5b 8e bd d5 b6 ae 3d 76 86 32 3d bc f3 87 bb
       -0.069510065 0.08530966 0.043585263 -0.0041489284
000170 f7 6b 78 3d 32 10 a5 3d 69 ac f5 3d 43 17 03 bd
       0.06064984 0.0805973 0.11995775 -0.032004606
000180 7a df 4c bd a0 09 af 3d e1 72 88 3c 66 8f 74 bd
       -0.05001781 0.08546758 0.016656341 -0.059707068
000190 62 16 bf bd f2 84 ff 3d bd c6 36 bd 02 45 d4 3d
       -0.09330441 0.12476529 -0.044623125 0.10364725
0001a0 de ec 8e bd 73 bd cf bc 58 01 d1 3d 86 9f 9f bd
       -0.069787726 -0.025358891 0.102053344 -0.077940986
0001b0 76 f4 6a bb 99 53 f3 3d 82 39 d1 3d 43 a7 42 3d
       -0.0035851276 0.11881179 0.10216047 0.047522794
0001c0 b2 fd bd bd 13 7d dd 3d d8 ec 2c 3c 28 4a 6c bc
       -0.09276904 0.10814872 0.010554515 -0.014421977
0001d0 ba 9f 9d bd 73 30 f8 3d db 23 2b bc 4c 35 ed 3d
       -0.07696481 0.12118616 -0.01044556 0.11582431
0001e0 22 1e e6 3d 44 1a 15 bd 7e f0 c6 bd e3 62 60 bd
       0.11236216 -0.036402002 -0.09713839 -0.054781806
0001f0 c1 72 e5 3d c6 21 ed bd 06 cd 9f bc 3f e3 00 3e
       0.11203528 -0.115787074 -0.019506942 0.12586688
000200 25 16 50 bd 7c 00 aa bd 08 42 c4 3d 1c 62 cb 3c
       -0.05080237 -0.08300874 0.09582907 0.024827056
000210 4e ad f5 3d 68 58 f6 3d 84 dc 51 bb 85 b5 a3 3b
       0.11995946 0.12028581 -0.0032022307 0.004996004
000220 86 c9 4d bd 36 d9 8a 3c 0c ac f2 3d e1 64 b7 3d
       -0.050241016 0.016949277 0.118492216 0.08954788
000230 0f 43 e3 3d dd cb 55 bb 0e 78 10 3d 76 1f f0 bd
       0.11096775 -0.0032622733 0.035270743 -0.11724751
000240 ed d9 42 3d 19 af 7f 3c 39 72 b8 bd 04 af b0 bd
       0.04757111 0.015605711 -0.09006161 -0.086271316
000250 ec 70 b1 bd 8f 69 9e 3d 3c 8d 5c bd e1 af b6 3d
       -0.08664116 0.077349775 -0.05384563 0.08920265
000260 88 74 ff 3c 06 0e 2a bc b4 57 34 bd 2d 17 91 bd
       0.031183496 -0.01037932 -0.044028953 -0.070844986
000270 cb b6 99 bd 4c 68 81 bd fc b9 3f bd 28 48 86 bd
       -0.07505568 -0.06318721 -0.046808228 -0.065567315
000280 af 12 31 3c b6 e8 4d 3d 45 6a 58 3d f4 62 ee 3b
       0.010807677 0.05027076 0.05283572 0.0072749797
000290 ee 0c 89 bd 42 13 c6 bd 07 d5 cc 3d 68 f4 93 3d
       -0.06691919 -0.09671642 0.10001569 0.07224351
0002a0 73 b2 bf bb fc f7 13 bd 25 41 71 bd 70 06 57 bc
       -0.00585013 -0.03612517 -0.058900017 -0.013124093
0002b0 ed 32 dc 3d dc 87 4c 3d 3c 9c 97 3c 49 d5 1a bc
       0.10751901 0.049934253 0.018507116 -0.009450265
0002c0 c1 c5 40 3d 84 8e 62 bd 9f 5d 14 3d 5c 14 b6 bd
       0.047063593 -0.055311695 0.036222097 -0.08890602
0002d0 93 cd b4 bd a6 bb bf 3c b6 10 6d bd 09 1c b9 bd
       -0.08828273 0.023404907 -0.057877265 -0.090385504
0002e0 2f c6 a0 bd 3c ba a1 3c bd b6 e9 bd 97 b2 da 3d
       -0.078503005 0.019742124 -0.11411808 0.106785946
0002f0 4a 08 b1 bc 60 73 9e bd b6 48 26 ba 0f f9 3b 3d
       -0.021610398 -0.0773685 -0.0006343232 0.045891818
000300 a4 10 fd bd a3 f7 95 bd 2f c2 90 3d 6c 70 c4 bd
       -0.123566896 -0.073226236 0.070682876 -0.09591755
000310 5a bc f9 bd fa 5c 9f bb 9b a3 aa bd 85 8e b5 bc
       -0.12194128 -0.0048633786 -0.083319865 -0.022162685
000320 a5 7d 3a bd 9d ac 33 bc 3b a5 80 3d 18 c0 d1 3b
       -0.04552998 -0.010966447 0.06281515 0.006401073
000330 89 a7 a7 bd 32 ad d0 bd 9b 96 ed bd c3 93 2f bd
       -0.08186252 -0.101892844 -0.11600991 -0.042865526
000340 02 7d 85 3d 48 32 1f 3d c3 2d 19 3d f7 94 98 3d
       0.06517984 0.03886631 0.037397157 0.07450288
000350 3a 90 9b 3d 22 89 a0 bc 91 c8 78 bd 75 60 2b bd
       0.075958684 -0.01959664 -0.06073815 -0.041840035
000360 11 6d 2e 3d 62 ab 94 bd 08 95 98 bd 40 e0 75 3d
       0.042584483 -0.07259251 -0.074503005 0.060028315
000370 f8 77 ba 3d da ec e4 bc 3b 2d d7 bd 78 5c 77 bd
       0.091049135 -0.02794497 -0.10506674 -0.06039092
000380 c7 b7 7d 3d 5d 2e 12 bc 61 d1 1c ba c3 f8 55 3d
       0.06194284 -0.008922187 -0.00059821276 0.05223919
000390 24 36 a0 bd a9 4b 05 3d 3a 88 86 bd 44 04 93 3c
       -0.078228265 0.03254286 -0.06568952 0.01794637
0003a0 98 ac af bd 99 f4 6b 3d bc ac 37 3d 8a 79 c8 bd
       -0.085778415 0.057606313 0.044842467 -0.09788807
0003b0 93 ae e8 bd 66 02 41 bd 2e 97 08 be ff 10 5e 3d
       -0.113614224 -0.047121428 -0.1333892 0.054215427
0003c0 e4 86 ae 3d d0 79 66 bd 41 bb dd 3d cd 79 c8 3d
       0.08521822 -0.056268513 0.108267315 0.09788857
0003d0 36 cb e5 3c 3d 7a 1d bd 1b b5 06 be 30 38 38 bc
       0.028051 -0.038446654 -0.13155024 -0.011243865
0003e0 66 21 80 3d 44 3a 2b 3d 8e a1 30 3d ed 82 ff bd
       0.0625637 0.041803613 0.04312282 -0.12476144
0003f0 ba 14 0a 3c b6 84 40 bc c5 a5 d9 bd 73 c4 ea bd
       0.008427793 -0.011750391 -0.10627321 -0.11463251
